…
pooling则在压缩了矩阵大小的情况下，保留每个分区内最大的输出，即保留了提取的特征。但理论上还没有证明max pooling的原理，max pooling应用的原因是在实践中效果很好。 Pooling layer: Average pooling 但是最大池化更好用 summary : 输入$n_Hn_Wn_C$,如果没有padding,输出$(n_h-f)/s+1(n_w-f)/s+1n_c$ L10: Convolutional neural network example (卷积神经网络实例)做一个识别数字的CNN网络 LeNet-5架构如下： 通常Conv Layer和Pooling Layer合在一起算一个layer，因为pooling layer并没有参数训练 常见的结构：Conv ==&gt; Pool ==&gt; Conv ==&gt; Pool ==&gt; FC ==&gt; FC ==&gt; softmax 最终还会用FC层（全连接层），与一般NN的处理一样；并在输出层，应用softmax得到10个数字的概率。 在整个网络中，Height和Width是逐渐递减的，但channel和filter是递增的。 关于CNN如何选择超参：可以参考论文的经验。 Activation shape Activation Size #parameters Input: (32, 32, 3) 3072 0 CONV1(f=5, s=1) (28, 28, 6) 4704 156 (=556+6) POOL1 (14, 14, 6) 1176 0 CONV2(f=5, s=1) (10, 10, 16) 1600 416 (=5516+16) POOL2 (5, 5, 16) 400 0 FC3 (120, 1) 120 48120 (=120*400+120) FC4 (84, 1) 84 10164 (=84*120+84) Softmax (10, 1) 10 850 (=10*84+10) L11 Why convolution 参数共享（parameter sharing) 如果用FC的话，参数爆炸啊！如果conv layer 就需要filter检测器，这个参数就少了，还参数共享 稀疏连接(sparsity of connection) 输出中的每个单元仅和输入的一个小分区相关，比如输出的左上角的像素仅仅由输入左上角的9个像素决定（假设filter大小是3*3），而其他输入都不会影响。 summary1. 卷积神经网络的基本构造和计算过程 2. 如何整合这些模型 3. 哪些超参数 4. 为什么使用卷积 W2 : Deep convolutional models: case studies(深度卷积网络：实例探究)L1 : Why look at case studies?(为什么要进行实例探究？)本文将主要介绍几个典型的CNN案例。通过对
…
